auto_aim/armor_detector/model/fc.onnx (onnx, 664680 bytes, 6 tensors)

classifier.f1.weight f4 [256, 560]
0.0019737831 -0.01213066 -0.01761977 -0.009458288 -0.0067472225 -0.009371723 0.005793113 -0.042177495
0.009363715 0.03310516 0.037461728 0.016297972 -0.035028752 -0.039176997 0.017498361 -0.00591301
-0.047134917 -0.04249616 -0.018316101 -0.03987512 -0.0069791935 0.02831112 -0.042853355 0.0056965286
0.0074434076 -0.006981038 -0.0037389311 -0.015824528 -0.03247579 -0.0022480662 0.0009004523 -0.01719512
0.0019113859 0.02242445 -0.006415713 0.004790001 0.025480676 0.028358486 0.04472761 0.01223629
-0.027577251 -0.014445126 0.010972687 0.038917657 -0.04033597 0.03442756 0.00032551907 -0.032687042
0.01644844 0.019082729 -0.03497101 -0.02297656 0.006329639 -0.0049658827 0.006344167 0.022720637
0.0076767947 -0.025010776 -0.00038664206 -0.018635293 0.025134565 0.017236492 0.01061934 0.0033636787
-0.00030500695 0.051462553 0.030823076 0.0039249705 -0.01712651 -0.011439326 0.029902872 -0.0019004333
0.02966384 -0.020660916 0.044293497 0.04368541 0.039970357 0.0105900075 0.05275895 0.037636776
0.030761203 -0.038908347 -0.0024643557 0.01776318 -0.0169384 -0.035607524 0.003747361 -0.007938713
0.037516978 0.030150045 -0.019002175 -0.007976579 0.01566573 -0.046323404 -0.021612776 0.017271914
-0.003996627 0.028068524 0.0012334879 0.0041953614 0.00048623193 0.026092676 -0.0002751807 -0.011490429
0.053715564 0.029965349 0.05480812 0.009073231 0.03970994 0.04239925 0.03381819 -0.0129172355
0.0068819937 0.014473337 -0.0074696415 -0.02866602 0.042024888 -0.013277929 -0.024822576 0.017688895
-0.03539064 -0.01070575 0.005258838 -0.024407867 -0.003954071 -0.024148582 -0.04940674 -0.04916308
-0.03810978 -0.009436083 -0.009708953 0.004653935 0.047283858 -0.005601865 -0.013444147 0.03847918
0.048542447 0.03678034 0.032403037 -0.040990453 -0.03466045 -0.00937758 -0.0002396988 0.0072056768
-0.037245914 0.011680561 0.027098514 0.009732729 -0.0023402185 -0.06408039 -0.056623686 -0.009437777
-0.019466283 -0.011591745 -0.003870958 -0.0003141575 0.022816584 -0.0005814316 -0.02205332 0.042701703
0.043009214 0.035729706 0.048127 -0.0137011325 -0.01004264 -0.020009989 -0.00543126 0.010374004
0.026754294 -0.008555001 -0.041578814 0.036667928 0.0074838707 0.026492571 -0.021230806 -0.026916388
-0.026492247 0.015010072 -0.055209845 -0.0519013 -0.05254214 -0.06029486 -0.05278022 -0.021117827
0.0090831965 0.012200189 0.017521098 -0.017040463 0.018598087 -0.0085804975 0.021921715 0.0009932313
0.029552797 0.024672003 -0.0177793 -0.034969103 -0.012852412 -0.031057049 0.0055335322 0.017390212
-0.033698656 -0.03533917 0.0029153044 0.017717952 -0.04560266 -0.014325871 -0.028731905 -0.033777535
0.031430814 0.038492534 0.039960727 0.01719388 0.00071169285 0.017537162 0.013231895 0.011670916
0.02984362 0.05078568 -0.004854634 0.038038846 -0.012973785 0.0029349884 0.006923015 0.017396862
-0.015216356 0.0021921338 0.018901188 -0.022625266 -0.038358524 -0.009973047 -0.014682157 0.02118134
0.029064339 -0.008694475 0.022232939 0.049475506 -0.013843993 0.04486245 0.028243631 -0.015461357
0.024860278 0.00013412014 -0.0075231297 0.030185074 0.00576621 -0.021013536 0.0052801357 -0.032241415
0.013861878 0.005414909 -0.014868535 -0.015364351 -0.012203053 -0.04367306 0.03781169 0.021319332
00000000: 965a 013b adbf 46bc 5657 90bc eff6 1abc
00000010: ce17 ddbb db8b 19bc 27d4 bd3b 4fc2 2cbd
00000020: 446a 193c 4799 073d 7871 193d 5383 853c
00000030: 4f7a 0fbd 0f78 20bd b958 8f3c ecc1 c1bb
00000040: 8b10 41bd 7410 2ebd a60b 96bc 1854 23bd
00000050: b8b1 e4bb b9ec e73c 0087 2fbd f2a9 ba3b
00000060: d4e7 f33b 31c1 e4bb db08 75bb 71a2 81bc
00000070: 5505 05bd 4b54 13bb 550c 6c3a c8dc 8cbc
00000080: 7887 fa3a 7bb3 b73c e73a d2bb 71f5 9c3b
00000090: dabc d03c 0e50 e83c 4c34 373d b87a 483c
000000a0: b0e9 e1bc 40ab 6cbc c9c6 333c 1f68 1f3d
000000b0: 5537 25bd ea03 0d3d 6eaa aa39 d9e2 05bd
000000c0: e1be 863c 6253 9c3c c33d 0fbd 5739 bcbc
000000d0: dc68 cf3b d8b8 a2bb bbe2 cf3b a120 ba3c
000000e0: 9f8d fb3b 66e3 ccbc 38b6 cab9 0ba9 98bc
000000f0: 01e7 cd3c 8b33 8d3c befc 2d3c 2a71 5c3b
00000100: 57e9 9fb9 66ca 523d ad80 fc3c 0a9d 803b
00000110: e54c 8cbc 036c 3bbc def6 f43c f617 f9ba
00000120: 9501 f33c 1541 a9bc 196d 353d 79ef 323d
00000130: f5b7 233d b681 2d3c c519 583d 0529 1a3d
00000140: ebfe fb3c 5c5e 1fbd 0781 21bb 1784 913c
00000150: 66c2 8abc 32d9 11bd 4996 753b 6011 02bc
00000160: 67ab 193d 3afd f63c 73aa 9bbc 32b0 02bc
00000170: 6b55 803c 9cbd 3dbd 470d b1bc d47d 8d3c
00000180: 23f6 82bb f6ef e53c fcac a13a 3e79 893b
00000190: f2ec fe39 4fc0 d53c 2146 90b9 5a42 3cbc
000001a0: da04 5c3d e479 f53c 7b7e 603d e4a7 143c
000001b0: e4a6 223d d6aa 2d3d f184 0a3d d0a2 53bc
000001c0: 5982 e13b 9321 6d3c e5c3 f4bb 00d5 eabc
000001d0: 4a22 2c3d ac8b 59bc b758 cbbc 4de8 903c
000001e0: c7f5 10bd 2c67 2fbc 5552 ac3b 02f3 c7bc
000001f0: 2791 81bb 3fd3 c5bc b95e 4abd 3a5f 49bd
00000200: 0019 1cbd cd99 1abc 4d12 1fbc 0980 983b
00000210: b8ac 413d d98f b7bb d744 5cbc 589c 1d3d
00000220: 72d4 463d fba6 163d 0cb9 043d 9be5 27bd
00000230: 1ef8 0dbd 6ca4 19bc a857 7bb9 991d ec3b
00000240: 2c8f 18bd d35f 3f3c b4fd dd3c 0676 1f3c
00000250: 5a5e 19bb 943c 83bd 3dee 67bd e8a0 1abc
00000260: c177 9fbc 4deb 3dbc e6af 7dbb 82b5 a4b9
00000270: d8e9 ba3c 376b 18ba 2aa9 b4bc fbe7 2e3d
00000280: 6e2a 303d 5059 123d d120 453d b77a 60bc
00000290: e389 24bc fdeb a3bc b6f8 b1bb baf7 293c
000002a0: d22b db3c 462a 0cbc 8c4e 2abd 1c31 163d
000002b0: 423b f53b f306 d93c 3aec adbc c27f dcbc
000002c0: 4506 d9bc ceec 753c b823 62bd 7596 54bd
000002d0: 6d36 57bd bef7 76bd 1230 58bd 4bff acbc
000002e0: b0d1 143c 4de3 473c 6888 8f3c 7198 8bbc
000002f0: 045b 983c 3795 0cbc 2b95 b33c 502f 823a
00000300: b518 f23c f11c ca3c e5a5 91bc c33b 0fbd
00000310: ec92 52bc 5a6b febc a252 b53b eb75 8e3c
00000320: 9a07 0abd cebf 10bd b10e 3f3b 3d25 913c
00000330: dbc9 3abd 0fb7 6abc 2c5f ebbc 505a 0abd
00000340: 99bd 003d 59aa 1d3d dcad 233d 2eda 8c3c
00000350: e690 3a3a 18aa 8f3c 97ca 583c 5f37 3f3c
00000360: 9b7a f43c a504 503d 9f13 9fbb 9fce 1b3d
00000370: 0090 54bc ef58 403b 76da e23b dd83 8e3c
00000380: 064e 79bc e7a9 0f3b aad6 9a3c 9f58 b9bc
00000390: d41d 1dbd fe65 23bc 6e8d 70bc 7d84 ad3c
000003a0: 5618 ee3c 4573 0ebc da21 b63c d4a6 4a3d
000003b0: ead1 62bc b0c1 373d 305f e73c a251 7dbc
000003c0: c8a7 cb3c 9aa2 0c39 9684 f6bb b046 f73c
000003d0: 7af2 bc3b 9424 acbc fd04 ad3b 930f 04bd
000003e0: ee1c 633c 8d6f b13b 289b 73bc c2ba 7bbc
000003f0: 50ef 47bc 86e2 32bd 6ee0 1a3d e1a5 ae3c

classifier.f1.bias f4 [256]
-0.029558813 -0.038876466 -0.016617242 0.050063234 0.056645624 0.019566862 0.011594017 0.028212702
0.055724364 0.007408543 -0.024604147 0.052254014 0.001169303 -0.03061457 0.040249985 0.01624491
-0.027824555 -0.004027012 0.000413037 -0.0062609497 -0.028909128 0.014541148 0.006021119 0.03878283
-0.019476106 0.03903755 0.0016582102 -0.0035601615 0.014313878 -0.041484408 -0.007548324 -0.01775161
0.03858837 0.01211096 0.018932393 -0.0023788826 0.021864975 -0.013874458 0.018577132 -0.032320272
0.01499119 -0.006468934 -0.016477754 -0.036831696 -0.00988603 -0.027779087 0.03669465 0.010916175
0.0528459 -0.029629296 -0.003176898 0.01168015 -0.038784653 0.01415638 -0.039903324 -0.0008561947
0.054509465 0.009629522 0.04450641 -0.039268564 0.018375132 0.008536416 0.01735808 -0.0027000434
0.039755113 0.045480102 0.009698103 0.027293678 0.03374292 0.008485025 0.014576193 -0.030713702
-0.020726664 0.0018272026 0.051695798 0.0029078603 0.046045978 0.049649827 -0.0057711205 0.04146492
-0.014937263 -0.014224356 -0.008415017 -0.028431898 0.026571244 -0.0113855265 -0.0092726 0.005340084
0.004514327 0.024999905 0.0056031574 0.028714208 -0.008756144 0.05648469 0.03055959 0.03340989
0.026586557 0.017931039 0.028389923 -0.015750702 -0.03825038 0.008788096 -0.018449087 -0.03529545
0.01327907 -0.009900013 -0.0012779213 -0.026169619 -0.018798238 0.01677429 0.013372277 0.05247058
0.04399363 0.021648424 0.028919235 0.060991768 0.016712477 0.005984422 0.044110674 0.026184702
0.06317874 0.0030422213 0.040625025 -0.0020751774 0.05114361 -0.0016666708 -0.03137388 0.016389128
-0.026329938 -0.006359309 0.009828669 -0.037950765 -0.0075430544 0.020050317 0.0046428316 0.007271964
0.028607696 0.0026467424 -0.023411721 0.010104791 -0.021803414 0.028199788 0.01806044 0.034500234
-0.031578943 0.05275831 0.027894542 -0.022038553 -0.013159786 0.036037005 -0.023480814 -0.022319552
0.01852176 -0.0034909318 0.026029656 0.038169 0.020404354 0.020630905 -0.021328218 -0.00023715997
0.05366096 0.041606896 -0.0060062795 0.04358537 -0.032364823 0.032440122 0.029339992 -0.03654497
-0.024035558 -0.004855001 -0.007504644 0.01013171 -0.0067024957 0.009383905 0.055326603 0.003017208
-0.018558428 -0.016832845 0.0064851157 0.0017107491 0.016543478 -0.01829074 0.0036923229 0.044065602
0.022898441 0.010200036 0.014680859 -0.026795302 0.048213392 0.053084638 0.02469006 0.02067787
0.017655795 0.0365389 0.031868834 0.018390767 -0.02917161 0.016176755 0.034541216 0.02317474
0.052117247 0.034507293 0.0074493694 0.005775873 0.030057065 0.047978938 0.013993643 -0.015240088
-0.019252248 0.014474932 -0.02518717 0.0075518577 0.01814415 0.016415756 0.031523865 -0.013902221
0.015333657 0.056661494 0.010236304 -0.034179762 -0.038986888 -0.015821183 0.022399334 0.029795226
0.039797667 -0.022581771 0.02375813 0.015422399 -0.028029969 0.029340614 0.022950627 0.020512393
0.038200088 0.03406023 -0.010403045 0.033648975 0.006484845 0.014564425 0.011498018 0.044540707
-0.03797403 -0.03428022 0.04386967 0.04042833 -0.01116048 0.032318868 -0.0024332106 0.037303403
0.02275401 -0.013910965 0.046990827 -0.037222728 0.045545842 -0.030677224 0.031108618 0.009525428
00000000: 5325 f2bc ee3c 1fbd e220 88bc 1b0f 4d3d
00000010: 3e05 683d af4a a03c d5f4 3d3c 531e e73c
00000020: 3b3f 643d 5dc3 f23b a38e c9bc 4e08 563d
00000030: 4c43 993a 68cb fabc 2bdd 243d 0c14 853c
00000040: 52f0 e3bc 06f5 83bb e38c d839 a728 cdbb
00000050: d6d2 ecbc ff3d 6e3c cf4c c53b bfda 1e3d
00000060: 5b8c 9fbc d7e5 1f3d 4d58 d93a 9951 69bb
00000070: c184 6a3c 8eeb 29bd ee57 f7bb d36b 91bc
00000080: d70e 1e3d 0c6d 463c 1b18 9b3c 07e7 1bbb
00000090: 2d1e b33c b251 63bc 122f 983c 4362 04bd
000000a0: 9c9d 753c 5af9 d3bb 5bfc 86bc d5dc 16bd
000000b0: 04f9 21bc f890 e3bc 214d 163d c2d9 323c
000000c0: f174 583d 23b9 f2bc 8133 50bb 1a5e 3f3c
000000d0: a8dc 1ebd 29f0 673c ab71 23bd 4172 60ba
000000e0: 5145 5f3d 25c5 1d3c 5a4c 363d 13d8 20bd
000000f0: 7287 963c 53dc 0b3c 8832 8e3c 36f3 30bb
00000100: 42d6 223d 5849 3a3d cbe4 1e3c fe96 df3c
00000110: 0436 0a3d c604 0b3c fcd0 6e3c 4d9b fbbc
00000120: f7ca a9bc bf7e ef3a f9be 533d cd91 3e3b
00000130: b59a 3c3d 9e5d 4b3d ab1b bdbb 1fd7 293d
00000140: 6cbb 74bc 460d 69bc 24df 09bc 03ea e8bc
00000150: f0ab d93c 5c8a 3abc 1aec 17bc dffb ae3b
00000160: ebec 933b 9acc cc3c b19a b73b 0f3a eb3c
00000170: ee75 0fbc 7e5c 673d 1b58 fa3c cfd8 083d
00000180: 0dcc d93c 1de4 923c fc91 e83c 9e07 81bc
00000190: 6eac 1cbd f2fb 0f3c 8a22 97bc f691 10bd
000001a0: 7590 593c aa33 22bc ec7f a7ba ab61 d6bc
000001b0: c3fe 99bc 3c6a 893c 6517 5b3c 64eb 563d
000001c0: aa32 343d 0958 b13c 08e8 ec3c 81d2 793d
000001d0: 9be8 883c f818 c43b 65ad 343d 4d81 d63c
000001e0: db63 813d 0160 473b 6d66 263d b3ff 07bb
000001f0: f67b 513d 3174 daba e681 00bd 7e42 863c
00000200: e2b1 d7bc c061 d0bb 6d08 213c 4372 1bbd
00000210: ba2b f7bb 9040 a43c e522 983b a849 ee3b
00000220: b05a ea3c f874 2d3b f0c9 bfbc 918e 253c
00000230: 139d b2bc 3e03 e73c 7df3 933c 1e50 0d3d
00000240: ec58 01bd 1919 583d 1883 e43c 328a b4bc
00000250: 259c 57bc 8a9b 133d d65a c0bc 7ed7 b6bc
00000260: f2ba 973c 1ec8 64bb 253c d53c 1957 1c3d
00000270: 0827 a73c 2502 a93c 84b8 aebc 25ae 78b9
00000280: 98cb 5b3d fe6b 2a3d 53d0 c4bb 9386 323d
00000290: fa90 04bd efdf 043d 6c5a f03c 2eb0 15bd
000002a0: 38e6 c4bc b316 9fbb 84e9 f5bb 79ff 253c
000002b0: 9ca0 dbbb f3be 193c 269e 623d 5abc 453b
000002c0: d807 98bc 09e5 89bc 1881 d43b 373b e03a
000002d0: 3086 873c 76d6 95bc e6fa 713b 227e 343d
000002e0: 8395 bb3c 0d1e 273c fc87 703c d281 dbbc
000002f0: 687b 453d 476f 593d cf42 ca3c a364 a93c
00000300: e3a2 903c d0a9 153d e588 023d 3ca8 963c
00000310: 4df9 eebc 1d85 843c 177b 0d3d f4d8 bd3c
00000320: e578 553d 8557 0d3d d719 f43b 8943 bd3b
00000330: 3c3a f63c 9085 443d 9845 653c 90b1 79bc
00000340: e4b6 9dbc 4428 6d3c 5355 cebc 9375 f73b
00000350: 0aa3 943c 567a 863c 2b1f 013d 24c6 63bc
00000360: 053a 7b3c e215 683d 2cb6 273c 1400 0cbd
00000370: b7b0 1fbd 6d9b 81bc cf7e b73c 1e15 f43c
00000380: e102 233d 68fd b8bc 69a0 c23c 3bae 7c3c
00000390: 1b9f e5bc ba5b f03c f402 bc3c 9b09 a83c
000003a0: b277 1c3d bd82 0b3d 8971 2abc 82d3 093d
000003b0: d37e d43b a09f 6e3c 2f62 3c3c 5170 363d
000003c0: a88a 1bbd 6a69 0cbd afb0 333d 2d98 253d
000003d0: 72da 36bc ca60 043d 8076 1fbb 74cb 183d
000003e0: 9e66 ba3c d1ea 63bc 7479 403d dc76 18bd
000003f0: 478e 3a3d cd4e fbbc 80d7 fe3c 8a10 1c3c

classifier.f2.weight f4 [84, 256]
-0.027061885 -0.06047926 0.053046208 -0.0014298997 0.027605884 0.042309355 -0.03356952 0.0072002257
0.03177632 -0.029155863 -0.05006494 0.040768337 0.06057482 0.003577568 -0.028070051 -0.0046145967
0.013667707 0.025723124 -0.059690427 0.018197943 -0.035602648 -0.044822045 0.02131448 0.03618306
-0.022277119 0.056286756 0.05489926 -0.025807485 -0.005001611 0.02539302 0.049571093 0.052634038
0.004984069 -0.048328497 -0.057233874 -0.027043406 0.018744137 -0.037757218 0.037132505 0.006369913
-0.05658519 0.02273981 0.0037580766 0.058453966 -0.015188168 -0.054565232 0.0032556306 -0.02081764
-0.047027938 -0.05743542 0.05345479 0.04512436 0.048749637 0.018379217 -0.059591014 0.0054733795
-0.006543339 -0.03223054 -0.038198736 -0.04765588 -0.03769842 0.057555526 0.03138644 -0.019195773
-0.06402239 -0.05136582 0.016448895 -0.03114318 -0.057486657 0.022561172 0.05979019 -0.03966759
-0.001576726 0.02329373 0.0049012317 0.048372813 -0.004048682 -0.0040932335 -0.04141272 -0.010302241
-0.057668153 0.021744864 0.032647453 -0.03372405 -0.032184254 0.034604076 0.014277226 0.006525212
0.058378074 -0.055924263 0.033055786 0.056573983 -0.04011054 0.029418122 -0.005276139 0.05104176
0.04597781 -0.033118248 0.0577849 0.025006345 -0.052996278 0.021556014 0.0085951425 -0.044760313
-0.06172395 -0.05416987 -0.042554047 0.041742485 0.03548939 -0.06367718 -0.008505195 0.02272921
-0.018931672 0.0071205855 -0.01937693 0.030063463 -0.022113223 -0.009736305 0.048234593 -0.026829997
0.037962303 -0.028937913 -0.017091919 -0.01185141 0.011411284 0.060056977 -0.05704144 -0.05645491
0.016479826 -0.012755906 0.013361665 -0.05649372 -0.044504374 -0.059492588 0.006564705 0.04610676
0.05255058 -0.022851134 -0.031123264 0.005678847 0.039606616 -0.0223399 -0.0239166 -0.01060016
-0.031576477 0.035147008 0.023324396 0.014769823 0.0414417 0.004529111 -0.046219032 0.030912828
0.048925824 0.044498898 -0.05200717 0.040349837 -0.01663942 -0.039719813 9.8171724e-05 0.05210723
0.009662752 -0.032088403 -0.043887015 0.052446846 0.03744963 -0.0063655996 0.048536226 0.01864492
0.04885042 -0.0444887 0.04419941 0.049330913 -0.025369314 -0.0029496546 -0.04725019 -0.05097202
0.012080121 0.024746252 0.030528344 0.011875029 -0.046933584 0.03235699 0.013564575 -0.054403517
0.027938366 -0.027670851 -0.038374234 -0.0011898896 -0.039277334 0.056451634 -0.055748962 0.040695537
-0.029819379 0.037424855 -0.03387736 -0.04591506 -0.033037726 0.0027708097 -0.024621384 0.029901294
-0.05657414 0.017593063 0.02502719 0.014159787 -0.045684483 -0.040945288 0.02722291 -0.017204924
-0.058823474 -0.0067432323 -0.053680375 -0.03027215 -0.04212132 -0.04518332 -0.01829697 -0.018735243
-0.057018545 0.010391622 0.0018436013 0.055423856 0.03364348 -0.025031995 0.034638513 0.008904061
0.056772772 0.016778154 -0.008621356 -0.036209993 -0.057586618 0.018208921 -0.020315217 -0.047425
-0.049494315 0.058746412 -0.01289709 0.025791157 -0.03662819 0.042400938 -0.048359375 0.050048016
0.024560831 0.02743889 -0.037620015 -0.024055116 -0.04208491 -0.013351549 -0.005905301 -0.044379957
-0.05708741 0.03385894 0.0462613 -0.00050117064 0.031796977 -0.05044417 -0.029414877 -0.02491784
00000000: e3b0 ddbc 1ab9 77bd fb46 593d 796b bbba
00000010: bc25 e23c 934c 2d3d 3180 09bd dfef eb3b
00000020: e327 023d 47d8 eebc e510 4dbd b3fc 263d
00000030: 4d1d 783d a275 6a3b 2af3 e5bc 0b36 97bb
00000040: 85ee 5f3c 4db9 d23c f37d 74bd da13 953c
00000050: 15d4 11bd 5297 37bd b49b ae3c b034 143d
00000060: 817e b6bc f18c 663d 0cde 603d 386a d3bc
00000070: 8ee4 a3bb 0605 d03c 0f0b 4b3d ca96 573d
00000080: 6751 a33b 1af4 45bd 116e 6abd 228a ddbc
00000090: 4e8d 993c 50a7 1abd 4118 183d b4ba d03b
000000a0: dfc5 67bd d748 ba3c 104a 763b 6d6d 6f3d
000000b0: cbd7 78bc cb7f 5fbd 6b5c 553b c189 aabc
000000c0: 5ea0 40bd 6741 6bbd 69f3 5a3d 52d4 383d
000000d0: b3ad 473d 0390 963c b515 74bd 095a b33b
000000e0: 8269 d6bb 2c04 04bd 4776 1cbd d032 43bd
000000f0: a969 1abd 58bf 6b3d 118f 003d 7440 9dbc
00000100: 2c1e 83bd f764 52bd d5bf 863c fb1f ffbc
00000110: 2177 6bbd 35d2 b83c 8fe6 743d 7c7a 22bd
00000120: 25aa ceba 7ed2 be3c 839a a03b 9222 463d
00000130: ceaa 84bb 8820 86bb 62a0 29bd bbca 28bc
00000140: 7135 6cbd 4922 b23c 56b9 053d 3b22 0abd
00000150: a3d3 03bd 01bd 0d3d 07eb 693c 72d1 d53b
00000160: d91d 6f3d d710 65bd 8165 073d 1fba 673d
00000170: f34a 24bd 46fe f03c 76e3 acbb 2a11 513d
00000180: 3a53 3c3d 00a7 07bd dcaf 6c3d 1bda cc3c
00000190: a012 59bd 3d96 b03c a4d2 0c3c 9756 37bd
000001a0: 41d2 7cbd 3ae1 5dbd 274d 2ebd 2bfa 2a3d
000001b0: 535d 113d 2e69 82bd 6059 0bbc 9c32 ba3c
000001c0: 9816 9bbc cd53 e93b 5ebc 9ebc a747 f63c
000001d0: ca26 b5bc 0685 1fbc a391 453d 95ca dbbc
000001e0: 5c7e 1b3d 340f edbc 5a04 8cbc 6b2c 42bc
000001f0: 65f6 3a3c 4efe 753d 49a4 69bd 443d 67bd
00000200: b300 873c 26fe 50bc e3ea 5a3c f565 67bd
00000210: 384a 36bd 80ae 73bd bd1c d73b 71da 3c3d
00000220: 473f 573d 4d32 bbbc 37f6 febc 9f15 ba3b
00000230: 8c3a 223d 2a02 b7bc bfec c3bc 4bac 2dbc
00000240: 5656 01bd 4ff6 0f3d ce12 bf3c 21fd 713c
00000250: c6be 293d f068 943b 2b50 3dbd e63c fd3c
00000260: 7266 483d 7a44 363d 7805 55bd df45 253d
00000270: 654f 88bc 3eb1 22bd 8be1 cd38 646e 553d
00000280: 8550 1e3c 216f 03bd dfc2 33bd 81d2 563d
00000290: c964 193d 8596 d0bb eccd 463d 3bbd 983c
000002a0: 6117 483d c839 36bd 710a 353d 360f 4a3d
000002b0: 4fd3 cfbc fe4e 41bb 6a89 41bd 09c8 50bd
000002c0: b3eb 453c a7b8 ca3c 9416 fa3c 7b8f 423c
000002d0: 6e3d 40bd c388 043d f43d 5e3c 39d6 5ebd
000002e0: 00df e43c fbad e2bc 4d2e 1dbd 12f6 9bba
000002f0: 45e1 20bd d439 673d 0659 64bd 5db0 263d
00000300: c547 f4bc ce4a 193d fdc2 0abd 6e11 3cbd
00000310: 9152 07bd 7996 353b c9b2 c9bc 8ff3 f43c
00000320: 49ba 67bd 541f 903c d205 cd3c 74fe 673c
00000330: a71f 3bbd 3fb6 27bd 9502 df3c 57f1 8cbc
00000340: e2f0 70bd 55f6 dcbb f4df 5bbd 4dfd f7bc
00000350: 6887 2cbd 2512 39bd 87e3 95bc a77a 99bc
00000360: 478c 69bd 9f41 2a3c ffa4 f13a 2004 633d
00000370: bfcd 093d e60f cdbc 1de1 0d3d 57e2 113c
00000380: 918a 683d 5772 893c 9740 0dbc ee50 14bd
00000390: f2df 6bbd e02a 953c 196c a6bc b840 42bd
000003a0: 8dba 4abd 14a0 703d 514e 53bc fa47 d33c
000003b0: 7107 16bd 9bac 2d3d 7b14 46bd 26ff 4c3d
000003c0: cc33 c93c 86c7 e03c 7217 1abd 3c0f c5bc
000003d0: 3a61 2cbd 75c0 5abc 4181 c1bb c2c7 35bd
000003e0: 7dd4 69bd acaf 0a3d 7d7c 3d3d fe60 03ba
000003f0: 8c3d 023d 8c9e 4ebd 78f7 f0bc 7f20 ccbc

classifier.f2.bias f4 [84]
-0.049427915 0.034451228 -0.06690263 0.076834336 0.017530492 0.007416128 0.065028004 0.03808566
0.014837426 0.057979286 0.021712642 0.042403538 0.04771857 -0.018657682 -0.037372738 -0.01481576
0.041663155 0.0947725 -0.04618892 0.016679375 0.009229577 -0.014126653 0.10299498 0.031316485
0.092725664 0.060629103 0.0025790134 -0.05496382 0.042340804 -0.022785611 0.09681561 -0.017227793
-0.005309922 -0.03231614 0.049288034 0.04536612 -0.04794801 0.03298061 -0.021028217 -0.0636982
-0.002374662 -0.04415228 -0.009339114 -0.03220751 -0.040098835 -0.03378852 -0.00025486623 0.089139365
0.027111512 -0.04107836 0.10184591 -0.05549964 -0.0044302414 -0.03684101 0.041236885 0.053899173
0.0849825 0.07696664 0.06459562 0.0033803345 0.080901414 0.019020282 0.0009885416 0.018426003
-0.04312958 0.09437485 0.022082668 0.018414918 0.039844517 -0.005817401 0.083909065 0.019416763
-0.039417613 -0.039304767 -0.03791975 -0.05023792 -0.027253559 0.04237958 -0.008076804 0.024174709
0.03924493 -0.04054656 0.08896093 0.014634003
00000000: ed74 4abd bb1c 0d3d 3f04 89bd 525b 9d3d
00000010: 1b9c 8f3c fe02 f33b 672d 853d b6ff 1b3d
00000020: ad18 733c b07b 6d3d b6de b13c 55af 2d3d
00000030: 8c74 433d ffd7 98bc 2814 19bd cdbd 72bc
00000040: fca6 2a3d 1618 c23d 9830 3dbd 2fa3 883c
00000050: a737 173c 7a73 67bc 08ef d23d b745 003d
00000060: f4e6 bd3d 3956 783d aa04 293b be21 61bd
00000070: 8d6d 2d3d e4a8 babc 4347 c63d 4d21 8dbc
00000080: dbfe adbb ee5d 04bd 40e2 493d d3d1 393d
00000090: 2265 44bd ad16 073d 5e43 acbc 3474 82bd
000000a0: 38a0 1bbb 05d9 34bd 1503 19bc 06ec 03bd
000000b0: ad3e 24bd d565 0abd 919f 85b9 b38e b63d
000000c0: f618 de3c c841 28bd 9794 d03d 9753 63bd
000000d0: 8f2b 91bb 99e6 16bd 02e8 283d 61c5 5c3d
000000e0: 4e0b ae3d b0a0 9d3d b54a 843d 9a88 5d3b
000000f0: a4af a53d 6cd0 9b3c f491 813a 21f2 963c
00000100: a4a8 30bd 9a47 c13d b6e6 b43c e2da 963c
00000110: 0134 233d e69f bebb 84d8 ab3d e70f 9f3c
00000120: 5d74 21bd 09fe 20bd bd51 1bbd 47c6 4dbd
00000130: db42 dfbc 3696 2d3d 9254 04bc 0a0a c63c
00000140: 4bbf 203d 2614 26bd 2631 b63d 75c3 6f3c

classifier.output.weight f4 [9, 84]
-0.082799934 -0.0808873 -0.056978494 -0.14432785 -0.053914078 -0.1735163 -0.03381557 -0.14422034
0.13880374 -0.13789393 -0.09727157 0.061886802 -0.0023251108 0.09300539 0.24676645 0.050194696
-0.09143633 -0.011339658 -0.0658368 0.060788445 -0.056678258 -0.21833771 -0.23523325 0.34367135
-0.03576263 -0.1428587 0.2628364 -0.006748817 -0.10527987 -0.15767829 0.14241546 0.14059718
-0.17531337 0.0971644 0.022832574 0.115878224 0.12193948 -0.2696889 0.009853128 0.024739407
0.072878316 -0.04109143 0.15555596 0.05929889 -0.19743995 -0.10916112 -0.1132293 -0.13581763
-0.056680713 -0.22572002 0.22042601 0.00058297766 -0.11527949 -0.108390406 0.024367144 -0.17451788
-0.19950591 0.24773557 0.080711745 0.23957822 0.18864018 0.012652109 0.300625 -0.17107719
-0.10657482 -0.12226184 0.0678133 0.05273951 -0.20574749 -0.16590631 0.15625708 -0.002963418
0.22530757 0.062314138 0.022532264 -0.10283443 0.121323794 0.011519152 -0.0025246982 0.05930983
0.08934447 -0.02083253 -0.12387883 0.012057872 0.05025518 0.2117994 -0.078333996 0.0147120515
-0.17585029 -0.053069953 0.10125297 0.17298192 0.023575941 0.22249219 -0.1747301 -0.021609832
-0.006483882 -0.0043568537 0.14347394 0.0060577486 0.17976484 0.20239235 -0.046647657 0.08304392
-0.04825038 -0.06595668 -0.15739784 -0.22150528 -0.14125212 -0.13234234 0.004955264 -0.22239634
0.0753275 -0.06919246 -0.04992387 -0.028219206 -0.1545629 0.27416703 0.25001344 -0.09514807
-0.016631719 0.10935164 0.090215065 -0.09521622 0.08365861 0.0004650111 -0.01500688 -0.00397055
-0.12817302 0.22509125 -0.049306158 0.13740331 -0.0012488377 -0.041189175 0.1604048 -0.13583723
-0.13786012 -0.06958362 0.16286835 -0.12071166 0.10928389 -0.1344715 0.061751474 0.07747798
0.19473848 -0.16099152 -0.2573858 0.24973653 0.021773545 0.18306203 -0.06596516 -0.19490647
-0.17539264 0.04778455 -0.031678706 0.042846605 -0.10194978 0.13952817 0.116982795 0.1641059
-0.13695095 0.17800766 0.101534404 -0.02677713 -0.025973806 -0.009415444 -0.12999912 0.07930363
-0.079321705 0.16266973 0.02179387 0.19665168 -0.08880759 0.07974613 0.020551397 -0.049155824
0.17111486 -0.12381174 -0.21701668 -0.030935103 -0.093270406 -0.05779563 0.11566323 0.043746613
0.07547954 -0.1354787 -0.007022341 -0.020958256 -0.05920026 0.27610502 -0.19690073 -0.007288307
-0.0831961 -0.11085228 0.00031700835 0.26781946 -0.18967205 0.3204889 -0.02638744 0.001125588
0.02767323 -0.027515685 -0.044463962 -0.17641588 0.21469642 -0.33597142 -0.0068905368 0.108226255
-0.0679254 0.077796355 0.0041230847 0.09391865 -0.2513981 -0.07190739 0.09781116 -0.15806
-0.078279614 -0.1315506 -0.17854121 -0.11497229 0.24719657 0.081329666 0.16356023 0.020516207
0.20616317 -0.18658805 0.042013973 0.0055782204 0.083137564 -0.00015238556 0.14388956 -0.2002721
0.08265088 -0.1401867 0.09915741 -0.062071957 -0.15802553 0.18756932 0.09495704 -0.018626058
-0.024637822 0.0115230745 0.32942915 0.047321543 -0.14500861 -0.040223707 0.00511815 -0.010768526
-0.036641683 0.013929105 -0.03136984 0.005331032 -0.091380715 -0.2585737 0.06330634 -0.086144276
00000000: 0393 a9bd 3ea8 a5bd 4862 69bd aeca 13be
00000010: 02d5 5cbd 42ae 31be 3282 0abd 7fae 13be
00000020: 9122 0e3e 1134 0dbe 5136 c7bd 047d 7d3d
00000030: e360 18bb 9c79 be3d 58b0 7c3e f498 4d3d
00000040: f842 bbbd f9c9 39bc 72d5 86bd 4efd 783d
00000050: 7627 68bd ec93 5fbe fce0 70be b1f5 af3e
00000060: d67b 12bd 8d49 12be 7e92 863e 2e25 ddbb
00000070: f99c d7bd 6b76 21be 5cd5 113e b5f8 0f3e
00000080: 5985 33be 21fe c63d 610b bb3c 9051 ed3d
00000090: 68bb f93d aa14 8abe 046f 213c 4caa ca3c
000000a0: 3a41 953d 7d4f 28bd 104a 1f3e 65e3 723d
000000b0: b32d 4abe de8f dfbd c3e4 e7bd c713 0bbe
000000c0: 092a 68bd 2623 67be 5bb7 613e f8d2 183a
000000d0: a717 ecbd cafb ddbd 9b9d c73c d1b4 32be
000000e0: 474b 4cbe 65ae 7d3e 334c a53d fe53 753e
000000f0: e42a 413e cb4a 4f3c 85eb 993e dc2e 2fbe
00000100: e643 dabd 6a64 fabd b3e1 8a3d 6205 583d
00000110: 78af 52be 58e3 29be db01 203e e735 42bb
00000120: 07b7 663e 1c3d 7f3d 9595 b83c dc9a d2bd
00000130: 9c78 f83d d3ba 3c3c 6875 25bb ddee 723d
00000140: 3cfa b63d fba8 aabc 2fb4 fdbd 618e 453c
00000150: 60d8 4d3d f1e1 583e 936d a0bd d10a 713c
00000160: 1912 34be e15f 59bd b85d cf3d 2c22 313e
00000170: 5522 c13c fed4 633e 73ec 32be 1a07 b1bc
00000180: bf76 d4bb f0c3 8ebb d5ea 123e 1480 c63b
00000190: 4614 383e f13f 4f3e 9d11 3fbd ee12 aa3d
000001a0: 31a2 45bd 4c14 87bd e62c 21be 48d2 62be
000001b0: 65a4 10be c084 07be c45f a23b debb 63be
000001c0: 4e45 9a3d c7b4 8dbd f97c 4cbd f72b e7bc
000001d0: bd45 1ebe 9f5f 8c3e c301 803e fedc c2bd
000001e0: 3e3f 88bc c1f3 df3d adc2 b83d b900 c3bd
000001f0: 3555 ab3d bccc f339 6bdf 75bc 631b 82bb
00000200: ca3f 03be 527e 663e 41f5 49bd 74b3 0c3e
00000210: 0ab0 a3ba fbb5 28bd 2841 243e ea18 0bbe
00000220: 342b 0dbe db81 8ebd f6c6 263e ad37 f7bd
00000230: 3bd0 df3d e6b2 09be 1def 7c3d c6ac 9e3d
00000240: 8669 473e f6da 24be 12c8 83be efba 7f3e
00000250: 6f5e b23c 9d74 3b3e be18 87bd 9095 47be
00000260: 219a 33be bbb9 433d 88c1 01bd ec7f 2f3d
00000270: 0ccb d0bd 79e0 0e3e ad94 ef3d 610b 283e
00000280: df3c 0cbe a447 363e 45f1 cf3d b65b dbbc
00000290: 05c7 d4bc 3c43 1abc 7d1e 05be f169 a23d
000002a0: 6b73 a2bd e592 263e 0f89 b23c 0f5f 493e
000002b0: c1e0 b5bd f051 a33d 675b a83c 9e57 49bd
000002c0: bc38 2f3e 0291 fdbd 9f39 5ebe 9d6b fdbc
000002d0: 8e04 bfbd 1cbb 6cbd d8e0 ec3d a62f 333d
000002e0: 0495 9a3d eeba 0abe aa1b e6bb a6b0 abbc
000002f0: f97b 72bd a35d 8d3e 58a0 49be c0d2 eebb
00000300: b862 aabd 8506 e3bd 2434 a639 a21f 893e
00000310: 6439 42be 1f17 a43e 792a d8bc 7788 933a
00000320: f8b2 e23c 9368 e1bc d81f 36bd 5da6 34be
00000330: 61d9 5b3e 7204 acbe 03ca e1bb baa5 dd3d
00000340: 791c 8bbd b253 9f3d f11a 873b 6c58 c03d
00000350: 40b7 80be 2f44 93bd 3851 c83d 7bda 21be
00000360: 1051 a0bd 33b5 06be 82d3 36be 9876 ebbd
00000370: 1921 7d3e 2b90 a63d 557c 273e 9b11 a83c
00000380: 701c 533e f010 3fbe d816 2c3d 81c9 b63b
00000390: 0744 aa3d b0c9 1fb9 c957 133e 2114 4dbe
000003a0: dd44 a93d 1a8d 0fbe 0a13 cb3d 2a3f 7ebd
000003b0: 72d1 21be 2c12 403e d678 c23d ad95 98bc
000003c0: 42d5 c9bc 47cb 3c3c f0aa a83e 3cd4 413d
000003d0: 237d 14be 9dc1 24bd 27b6 a73b 796e 30bc
000003e0: 9715 16bd e736 643c a97d 00bd f0af ae3b
000003f0: d025 bbbd c663 84be c1a6 813d 696c b0bd

classifier.output.bias f4 [9]
0.041069947 0.049917802 -0.13190888 -0.13036434 -0.13899301 -0.17542529 0.09528667 -0.0050865575
0.08331697
00000000: f638 283d 9c76 4c3d 1f13 07be 3b7e 05be
00000010: 2f54 0ebe b0a2 33be a825 c33d 23ad a6bb
00000020: 16a2 aa3d
